2024-05-22 11:24:40,724 - __main__ - INFO - Namespace(epochs=64, lr=2e-05)
2024-05-22 11:24:43,444 - __main__ - INFO - BMEModelForSequenceClassification(
  (bme): BMEModel(
    (embeddings): Embedding(
      (eeg_embedding): Embedding(4098, 512, padding_idx=0)
      (ecg_embedding): Embedding(4098, 512, padding_idx=0)
    )
    (pre_mixer_layernorm): BMERMSNorm()
    (multi_modal_mixer): Multimodal_MambaMixer(
      (eeg_mamba): MambaMixer(
        (conv1d): LognConv1d(1024, 1024, kernel_size=(4,), stride=(1,), padding=(3,), groups=1024)
        (act): SiLU()
        (in_proj): Linear(in_features=512, out_features=2048, bias=False)
        (x_proj): Linear(in_features=1024, out_features=64, bias=False)
        (dt_proj): Linear(in_features=32, out_features=1024, bias=True)
        (out_proj): Linear(in_features=1024, out_features=512, bias=False)
      )
      (ecg_mamba): MambaMixer(
        (conv1d): LognConv1d(1024, 1024, kernel_size=(4,), stride=(1,), padding=(3,), groups=1024)
        (act): SiLU()
        (in_proj): Linear(in_features=512, out_features=2048, bias=False)
        (x_proj): Linear(in_features=1024, out_features=64, bias=False)
        (dt_proj): Linear(in_features=32, out_features=1024, bias=True)
        (out_proj): Linear(in_features=1024, out_features=512, bias=False)
      )
    )
    (pre_attention_layernorm): BMERMSNorm()
    (attention): MultiModalMultiHeadAggregatedAttention(
      (eeg_Q): Linear(in_features=512, out_features=512, bias=True)
      (eeg_K): Linear(in_features=512, out_features=512, bias=True)
      (eeg_V): Linear(in_features=512, out_features=512, bias=True)
      (ecg_Q): Linear(in_features=512, out_features=512, bias=True)
      (ecg_K): Linear(in_features=512, out_features=512, bias=True)
      (ecg_V): Linear(in_features=512, out_features=512, bias=True)
      (W_out): Linear(in_features=1024, out_features=512, bias=True)
    )
    (pre_mlp_layernorm): BMERMSNorm()
    (mlp): MLP(
      (gate_linear): Linear(in_features=512, out_features=2048, bias=True)
      (gate_act): Sigmoid()
      (up_linear): Linear(in_features=512, out_features=2048, bias=True)
      (up_act): SiLU()
      (down_linear): Linear(in_features=2048, out_features=512, bias=True)
    )
    (hidden_dropout): Dropout(p=0.1, inplace=False)
    (final_layer_norm): BMERMSNorm()
  )
  (classifier): Linear(in_features=512, out_features=32, bias=True)
)
2024-05-22 11:24:43,446 - __main__ - INFO - Total Parameters: 12856355
2024-05-22 11:24:57,236 - __main__ - INFO - Epoch [1/64], Step [3/30], lr: 0.00002000, Loss: 3.2113921642303467
2024-05-22 11:25:08,844 - __main__ - INFO - Epoch [1/64], Step [6/30], lr: 0.00002000, Loss: 3.564548969268799
2024-05-22 11:25:21,252 - __main__ - INFO - Epoch [1/64], Step [9/30], lr: 0.00002000, Loss: 2.1661402384440103
…
2024-05-22 11:27:33,873 - __main__ - INFO - Epoch [2/64], Step [12/30], lr: 0.00002000, Loss: 0.5539781522626678
2024-05-22 11:27:45,680 - __main__ - INFO - Epoch [2/64], Step [15/30], lr: 0.00002000, Loss: 0.5417146813124418
2024-05-22 11:27:57,631 - __main__ - INFO - Epoch [2/64], Step [18/30], lr: 0.00002000, Loss: 0.010934088689585527
2024-05-22 11:28:10,079 - __main__ - INFO - Epoch [2/64], Step [21/30], lr: 0.00002000, Loss: 1.7851873151957989
2024-05-22 11:33:53,023 - __main__ - INFO - Namespace(epochs=1, lr=2e-05)
2024-05-22 11:33:55,846 - __main__ - INFO - BMEModelForSequenceClassification(
  (bme): BMEModel(
    (embeddings): Embedding(
      (eeg_embedding): Embedding(4098, 512, padding_idx=0)
      (ecg_embedding): Embedding(4098, 512, padding_idx=0)
    )
    (pre_mixer_layernorm): BMERMSNorm()
    (multi_modal_mixer): Multimodal_MambaMixer(
      (eeg_mamba): MambaMixer(
        (conv1d): LognConv1d(1024, 1024, kernel_size=(4,), stride=(1,), padding=(3,), groups=1024)
        (act): SiLU()
        (in_proj): Linear(in_features=512, out_features=2048, bias=False)
        (x_proj): Linear(in_features=1024, out_features=64, bias=False)
        (dt_proj): Linear(in_features=32, out_features=1024, bias=True)
        (out_proj): Linear(in_features=1024, out_features=512, bias=False)
      )
      (ecg_mamba): MambaMixer(
        (conv1d): LognConv1d(1024, 1024, kernel_size=(4,), stride=(1,), padding=(3,), groups=1024)
        (act): SiLU()
        (in_proj): Linear(in_features=512, out_features=2048, bias=False)
        (x_proj): Linear(in_features=1024, out_features=64, bias=False)
        (dt_proj): Linear(in_features=32, out_features=1024, bias=True)
        (out_proj): Linear(in_features=1024, out_features=512, bias=False)
      )
    )
    (pre_attention_layernorm): BMERMSNorm()
    (attention): MultiModalMultiHeadAggregatedAttention(
      (eeg_Q): Linear(in_features=512, out_features=512, bias=True)
      (eeg_K): Linear(in_features=512, out_features=512, bias=True)
      (eeg_V): Linear(in_features=512, out_features=512, bias=True)
      (ecg_Q): Linear(in_features=512, out_features=512, bias=True)
      (ecg_K): Linear(in_features=512, out_features=512, bias=True)
      (ecg_V): Linear(in_features=512, out_features=512, bias=True)
      (W_out): Linear(in_features=1024, out_features=512, bias=True)
    )
    (pre_mlp_layernorm): BMERMSNorm()
    (mlp): MLP(
      (gate_linear): Linear(in_features=512, out_features=2048, bias=True)
      (gate_act): Sigmoid()
      (up_linear): Linear(in_features=512, out_features=2048, bias=True)
      (up_act): SiLU()
      (down_linear): Linear(in_features=2048, out_features=512, bias=True)
    )
    (hidden_dropout): Dropout(p=0.1, inplace=False)
    (final_layer_norm): BMERMSNorm()
  )
  (classifier): Linear(in_features=512, out_features=32, bias=True)
)
2024-05-22 11:33:55,849 - __main__ - INFO - Total Parameters: 12856355
2024-05-22 11:34:09,659 - __main__ - INFO - Epoch [1/1], Step [3/30], lr: 0.00002000, Loss: 3.4545700550079346
2024-05-22 11:34:21,309 - __main__ - INFO - Epoch [1/1], Step [6/30], lr: 0.00002000, Loss: 3.5502611001332602
2024-05-22 11:34:32,981 - __main__ - INFO - Epoch [1/1], Step [9/30], lr: 0.00002000, Loss: 2.2247520685195923
2024-05-22 11:34:44,537 - __main__ - INFO - Epoch [1/1], Step [12/30], lr: 0.00002000, Loss: 1.6450568040211995
2024-05-22 11:40:43,909 - __main__ - INFO - Namespace(epochs=5, lr=2e-05)
2024-05-22 11:40:46,785 - __main__ - INFO - BMEModelForSequenceClassification(
  (bme): BMEModel(
    (embeddings): Embedding(
      (eeg_embedding): Embedding(4098, 512, padding_idx=0)
      (ecg_embedding): Embedding(4098, 512, padding_idx=0)
    )
    (pre_mixer_layernorm): BMERMSNorm()
    (multi_modal_mixer): Multimodal_MambaMixer(
      (eeg_mamba): MambaMixer(
        (conv1d): LognConv1d(1024, 1024, kernel_size=(4,), stride=(1,), padding=(3,), groups=1024)
        (act): SiLU()
        (in_proj): Linear(in_features=512, out_features=2048, bias=False)
        (x_proj): Linear(in_features=1024, out_features=64, bias=False)
        (dt_proj): Linear(in_features=32, out_features=1024, bias=True)
        (out_proj): Linear(in_features=1024, out_features=512, bias=False)
      )
      (ecg_mamba): MambaMixer(
        (conv1d): LognConv1d(1024, 1024, kernel_size=(4,), stride=(1,), padding=(3,), groups=1024)
        (act): SiLU()
        (in_proj): Linear(in_features=512, out_features=2048, bias=False)
        (x_proj): Linear(in_features=1024, out_features=64, bias=False)
        (dt_proj): Linear(in_features=32, out_features=1024, bias=True)
        (out_proj): Linear(in_features=1024, out_features=512, bias=False)
      )
    )
    (pre_attention_layernorm): BMERMSNorm()
    (attention): MultiModalMultiHeadAggregatedAttention(
      (eeg_Q): Linear(in_features=512, out_features=512, bias=True)
      (eeg_K): Linear(in_features=512, out_features=512, bias=True)
      (eeg_V): Linear(in_features=512, out_features=512, bias=True)
      (ecg_Q): Linear(in_features=512, out_features=512, bias=True)
      (ecg_K): Linear(in_features=512, out_features=512, bias=True)
      (ecg_V): Linear(in_features=512, out_features=512, bias=True)
      (W_out): Linear(in_features=1024, out_features=512, bias=True)
    )
    (pre_mlp_layernorm): BMERMSNorm()
    (mlp): MLP(
      (gate_linear): Linear(in_features=512, out_features=2048, bias=True)
      (gate_act): Sigmoid()
      (up_linear): Linear(in_features=512, out_features=2048, bias=True)
      (up_act): SiLU()
      (down_linear): Linear(in_features=2048, out_features=512, bias=True)
    )
    (hidden_dropout): Dropout(p=0.1, inplace=False)
    (final_layer_norm): BMERMSNorm()
  )
  (classifier): Linear(in_features=512, out_features=32, bias=True)
)
2024-05-22 11:40:46,787 - __main__ - INFO - Total Parameters: 12856355
2024-05-22 11:41:01,352 - __main__ - INFO - Epoch [1/5], Step [3/30], lr: 0.00002000, Loss: 3.8443374633789062
2024-05-22 11:41:13,644 - __main__ - INFO - Epoch [1/5], Step [6/30], lr: 0.00002000, Loss: 3.512122551600138
2024-05-22 11:41:25,947 - __main__ - INFO - Epoch [1/5], Step [9/30], lr: 0.00002000, Loss: 2.5958664417266846
…
2024-05-22 15:32:02,222 - __main__ - INFO - Epoch [1/5], Step [27/30], lr: 0.00002000, Loss: 1.9518993745247524
2024-05-22 15:33:58,097 - __main__ - INFO - Epoch [1/5], Step [30/30], lr: 0.00002000, Loss: 0.675161376905938
2024-05-22 15:35:55,633 - __main__ - INFO - Epoch [2/5], Step [3/30], lr: 0.00002000, Loss: 1.6143214448044698
2024-05-22 15:37:54,452 - __main__ - INFO - Epoch [2/5], Step [6/30], lr: 0.00002000, Loss: 3.7538472930900753
2024-05-22 16:17:09,093 - __main__ - INFO - Namespace(epochs=5, lr=2e-05)
2024-05-22 16:17:12,314 - __main__ - INFO - BMEModelForSequenceClassification(
  (bme): BMEModel(
    (embeddings): Embedding(
      (eeg_embedding): Embedding(4098, 512, padding_idx=0)
      (ecg_embedding): Embedding(4098, 512, padding_idx=0)
    )
    (pre_mixer_layernorm): BMERMSNorm()
    (multi_modal_mixer): Multimodal_MambaMixer(
      (eeg_mamba): MambaMixer(
        (conv1d): LognConv1d(1024, 1024, kernel_size=(4,), stride=(1,), padding=(3,), groups=1024)
        (act): SiLU()
        (in_proj): Linear(in_features=512, out_features=2048, bias=False)
        (x_proj): Linear(in_features=1024, out_features=64, bias=False)
        (dt_proj): Linear(in_features=32, out_features=1024, bias=True)
        (out_proj): Linear(in_features=1024, out_features=512, bias=False)
      )
      (ecg_mamba): MambaMixer(
        (conv1d): LognConv1d(1024, 1024, kernel_size=(4,), stride=(1,), padding=(3,), groups=1024)
        (act): SiLU()
        (in_proj): Linear(in_features=512, out_features=2048, bias=False)
        (x_proj): Linear(in_features=1024, out_features=64, bias=False)
        (dt_proj): Linear(in_features=32, out_features=1024, bias=True)
        (out_proj): Linear(in_features=1024, out_features=512, bias=False)
      )
    )
    (pre_attention_layernorm): BMERMSNorm()
    (attention): MultiModalMultiHeadAggregatedAttention(
      (eeg_Q): Linear(in_features=512, out_features=512, bias=True)
      (eeg_K): Linear(in_features=512, out_features=512, bias=True)
      (eeg_V): Linear(in_features=512, out_features=512, bias=True)
      (ecg_Q): Linear(in_features=512, out_features=512, bias=True)
      (ecg_K): Linear(in_features=512, out_features=512, bias=True)
      (ecg_V): Linear(in_features=512, out_features=512, bias=True)
      (W_out): Linear(in_features=1024, out_features=512, bias=True)
    )
    (pre_mlp_layernorm): BMERMSNorm()
    (mlp): MLP(
      (gate_linear): Linear(in_features=512, out_features=2048, bias=True)
      (gate_act): Sigmoid()
      (up_linear): Linear(in_features=512, out_features=2048, bias=True)
      (up_act): SiLU()
      (down_linear): Linear(in_features=2048, out_features=512, bias=True)
    )
    (hidden_dropout): Dropout(p=0.1, inplace=False)
    (final_layer_norm): BMERMSNorm()
  )
  (classifier): Linear(in_features=512, out_features=32, bias=True)
)
2024-05-22 16:17:12,316 - __main__ - INFO - Total Parameters: 12856355
2024-05-22 22:37:16,523 - __main__ - INFO - Namespace(epochs=5, lr=2e-05)
2024-05-22 22:37:20,395 - __main__ - INFO - BMEModelForSequenceClassification(
  (bme): BMEModel(
    (embeddings): Embedding(
      (eeg_embedding): Embedding(4098, 512, padding_idx=0)
      (ecg_embedding): Embedding(4098, 512, padding_idx=0)
    )
    (pre_mixer_layernorm): BMERMSNorm()
    (multi_modal_mixer): Multimodal_MambaMixer(
      (eeg_mamba): MambaMixer(
        (conv1d): LognConv1d(1024, 1024, kernel_size=(4,), stride=(1,), padding=(3,), groups=1024)
        (act): SiLU()
        (in_proj): Linear(in_features=512, out_features=2048, bias=False)
        (x_proj): Linear(in_features=1024, out_features=64, bias=False)
        (dt_proj): Linear(in_features=32, out_features=1024, bias=True)
        (out_proj): Linear(in_features=1024, out_features=512, bias=False)
      )
      (ecg_mamba): MambaMixer(
        (conv1d): LognConv1d(1024, 1024, kernel_size=(4,), stride=(1,), padding=(3,), groups=1024)
        (act): SiLU()
        (in_proj): Linear(in_features=512, out_features=2048, bias=False)
        (x_proj): Linear(in_features=1024, out_features=64, bias=False)
        (dt_proj): Linear(in_features=32, out_features=1024, bias=True)
        (out_proj): Linear(in_features=1024, out_features=512, bias=False)
      )
    )
    (pre_attention_layernorm): BMERMSNorm()
    (attention): MultiModalMultiHeadAggregatedAttention(
      (eeg_Q): Linear(in_features=512, out_features=512, bias=True)
      (eeg_K): Linear(in_features=512, out_features=512, bias=True)
      (eeg_V): Linear(in_features=512, out_features=512, bias=True)
      (ecg_Q): Linear(in_features=512, out_features=512, bias=True)
      (ecg_K): Linear(in_features=512, out_features=512, bias=True)
      (ecg_V): Linear(in_features=512, out_features=512, bias=True)
      (W_out): Linear(in_features=1024, out_features=512, bias=True)
    )
    (pre_mlp_layernorm): BMERMSNorm()
    (mlp): MLP(
      (gate_linear): Linear(in_features=512, out_features=2048, bias=True)
      (gate_act): Sigmoid()
      (up_linear): Linear(in_features=512, out_features=2048, bias=True)
      (up_act): SiLU()
      (down_linear): Linear(in_features=2048, out_features=512, bias=True)
    )
    (hidden_dropout): Dropout(p=0.1, inplace=False)
    (final_layer_norm): BMERMSNorm()
  )
  (classifier): Linear(in_features=512, out_features=32, bias=True)
)
2024-05-22 22:37:20,399 - __main__ - INFO - Total Parameters: 12856355
2024-05-22 22:44:15,097 - __main__ - INFO - Namespace(epochs=5, lr=2e-05)
2024-05-22 22:44:19,526 - __main__ - INFO - BMEModelForSequenceClassification(
  (bme): BMEModel(
    (embeddings): Embedding(
      (eeg_embedding): Embedding(4098, 512, padding_idx=0)
      (ecg_embedding): Embedding(4098, 512, padding_idx=0)
    )
    (pre_mixer_layernorm): BMERMSNorm()
    (multi_modal_mixer): Multimodal_MambaMixer(
      (eeg_mamba): MambaMixer(
        (conv1d): LognConv1d(1024, 1024, kernel_size=(4,), stride=(1,), padding=(3,), groups=1024)
        (act): SiLU()
        (in_proj): Linear(in_features=512, out_features=2048, bias=False)
        (x_proj): Linear(in_features=1024, out_features=64, bias=False)
        (dt_proj): Linear(in_features=32, out_features=1024, bias=True)
        (out_proj): Linear(in_features=1024, out_features=512, bias=False)
      )
      (ecg_mamba): MambaMixer(
        (conv1d): LognConv1d(1024, 1024, kernel_size=(4,), stride=(1,), padding=(3,), groups=1024)
        (act): SiLU()
        (in_proj): Linear(in_features=512, out_features=2048, bias=False)
        (x_proj): Linear(in_features=1024, out_features=64, bias=False)
        (dt_proj): Linear(in_features=32, out_features=1024, bias=True)
        (out_proj): Linear(in_features=1024, out_features=512, bias=False)
      )
    )
    (pre_attention_layernorm): BMERMSNorm()
    (attention): MultiModalMultiHeadAggregatedAttention(
      (eeg_Q): Linear(in_features=512, out_features=512, bias=True)
      (eeg_K): Linear(in_features=512, out_features=512, bias=True)
      (eeg_V): Linear(in_features=512, out_features=512, bias=True)
      (ecg_Q): Linear(in_features=512, out_features=512, bias=True)
      (ecg_K): Linear(in_features=512, out_features=512, bias=True)
      (ecg_V): Linear(in_features=512, out_features=512, bias=True)
      (W_out): Linear(in_features=1024, out_features=512, bias=True)
    )
    (pre_mlp_layernorm): BMERMSNorm()
    (mlp): MLP(
      (gate_linear): Linear(in_features=512, out_features=2048, bias=True)
      (gate_act): Sigmoid()
      (up_linear): Linear(in_features=512, out_features=2048, bias=True)
      (up_act): SiLU()
      (down_linear): Linear(in_features=2048, out_features=512, bias=True)
    )
    (hidden_dropout): Dropout(p=0.1, inplace=False)
    (final_layer_norm): BMERMSNorm()
  )
  (classifier): Linear(in_features=512, out_features=32, bias=True)
)
2024-05-22 22:44:19,530 - __main__ - INFO - Total Parameters: 12856355
2024-05-22 22:46:16,670 - __main__ - INFO - Epoch [1/5], Step [3/30], lr: 0.00002000, Loss: 3.240406115849813
2024-05-22 22:48:11,523 - __main__ - INFO - Epoch [1/5], Step [6/30], lr: 0.00002000, Loss: 2.9339269002278647
2024-05-22 22:50:05,942 - __main__ - INFO - Epoch [1/5], Step [9/30], lr: 0.00002000, Loss: 1.8548855781555176
2024-05-22 22:50:14,757 - __main__ - INFO - Namespace(epochs=1, lr=2e-05)
2024-05-22 22:50:17,775 - __main__ - INFO - BMEModelForSequenceClassification(
  (bme): BMEModel(
    (embeddings): Embedding(
      (eeg_embedding): Embedding(4098, 512, padding_idx=0)
      (ecg_embedding): Embedding(4098, 512, padding_idx=0)
    )
    (pre_mixer_layernorm): BMERMSNorm()
    (multi_modal_mixer): Multimodal_MambaMixer(
      (eeg_mamba): MambaMixer(
        (conv1d): LognConv1d(1024, 1024, kernel_size=(4,), stride=(1,), padding=(3,), groups=1024)
        (act): SiLU()
        (in_proj): Linear(in_features=512, out_features=2048, bias=False)
        (x_proj): Linear(in_features=1024, out_features=64, bias=False)
        (dt_proj): Linear(in_features=32, out_features=1024, bias=True)
        (out_proj): Linear(in_features=1024, out_features=512, bias=False)
      )
      (ecg_mamba): MambaMixer(
        (conv1d): LognConv1d(1024, 1024, kernel_size=(4,), stride=(1,), padding=(3,), groups=1024)
        (act): SiLU()
        (in_proj): Linear(in_features=512, out_features=2048, bias=False)
        (x_proj): Linear(in_features=1024, out_features=64, bias=False)
        (dt_proj): Linear(in_features=32, out_features=1024, bias=True)
        (out_proj): Linear(in_features=1024, out_features=512, bias=False)
      )
    )
    (pre_attention_layernorm): BMERMSNorm()
    (attention): MultiModalMultiHeadAggregatedAttention(
      (eeg_Q): Linear(in_features=512, out_features=512, bias=True)
      (eeg_K): Linear(in_features=512, out_features=512, bias=True)
      (eeg_V): Linear(in_features=512, out_features=512, bias=True)
      (ecg_Q): Linear(in_features=512, out_features=512, bias=True)
      (ecg_K): Linear(in_features=512, out_features=512, bias=True)
      (ecg_V): Linear(in_features=512, out_features=512, bias=True)
      (W_out): Linear(in_features=1024, out_features=512, bias=True)
    )
    (pre_mlp_layernorm): BMERMSNorm()
    (mlp): MLP(
      (gate_linear): Linear(in_features=512, out_features=2048, bias=True)
      (gate_act): Sigmoid()
      (up_linear): Linear(in_features=512, out_features=2048, bias=True)
      (up_act): SiLU()
      (down_linear): Linear(in_features=2048, out_features=512, bias=True)
    )
    (hidden_dropout): Dropout(p=0.1, inplace=False)
    (final_layer_norm): BMERMSNorm()
  )
  (classifier): Linear(in_features=512, out_features=32, bias=True)
)
2024-05-22 22:50:17,778 - __main__ - INFO - Total Parameters: 12856355
2024-05-22 22:52:22,431 - __main__ - INFO - Epoch [1/1], Step [3/30], lr: 0.00002000, Loss: 3.645235459009806
2024-05-22 22:54:25,482 - __main__ - INFO - Epoch [1/1], Step [6/30], lr: 0.00002000, Loss: 3.0143137772878013
2024-05-22 22:56:28,724 - __main__ - INFO - Epoch [1/1], Step [9/30], lr: 0.00002000, Loss: 1.9332810242970784
2024-05-22 22:58:27,319 - __main__ - INFO - Epoch [1/1], Step [12/30], lr: 0.00002000, Loss: 2.295355757077535
2024-05-23 13:57:59,668 - __main__ - INFO - Namespace(epochs=1, lr=2e-05)
2024-05-23 13:58:04,845 - __main__ - INFO - BMEModelForSequenceClassification(
  (bme): BMEModel(
    (embeddings): Embedding(
      (eeg_embedding): Embedding(4098, 512, padding_idx=0)
      (ecg_embedding): Embedding(4098, 512, padding_idx=0)
    )
    (pre_mixer_layernorm): BMERMSNorm()
    (multi_modal_mixer): Multimodal_MambaMixer(
      (eeg_mamba): MambaMixer(
        (conv1d): LognConv1d(1024, 1024, kernel_size=(4,), stride=(1,), padding=(3,), groups=1024)
        (act): SiLU()
        (in_proj): Linear(in_features=512, out_features=2048, bias=False)
        (x_proj): Linear(in_features=1024, out_features=64, bias=False)
        (dt_proj): Linear(in_features=32, out_features=1024, bias=True)
        (out_proj): Linear(in_features=1024, out_features=512, bias=False)
      )
      (ecg_mamba): MambaMixer(
        (conv1d): LognConv1d(1024, 1024, kernel_size=(4,), stride=(1,), padding=(3,), groups=1024)
        (act): SiLU()
        (in_proj): Linear(in_features=512, out_features=2048, bias=False)
        (x_proj): Linear(in_features=1024, out_features=64, bias=False)
        (dt_proj): Linear(in_features=32, out_features=1024, bias=True)
        (out_proj): Linear(in_features=1024, out_features=512, bias=False)
      )
    )
    (pre_attention_layernorm): BMERMSNorm()
    (attention): MultiModalMultiHeadAggregatedAttention(
      (eeg_Q): Linear(in_features=512, out_features=512, bias=True)
      (eeg_K): Linear(in_features=512, out_features=512, bias=True)
      (eeg_V): Linear(in_features=512, out_features=512, bias=True)
      (ecg_Q): Linear(in_features=512, out_features=512, bias=True)
      (ecg_K): Linear(in_features=512, out_features=512, bias=True)
      (ecg_V): Linear(in_features=512, out_features=512, bias=True)
      (W_out): Linear(in_features=1024, out_features=512, bias=True)
    )
    (pre_mlp_layernorm): BMERMSNorm()
    (mlp): MLP(
      (gate_linear): Linear(in_features=512, out_features=2048, bias=True)
      (gate_act): Sigmoid()
      (up_linear): Linear(in_features=512, out_features=2048, bias=True)
      (up_act): SiLU()
      (down_linear): Linear(in_features=2048, out_features=512, bias=True)
    )
    (hidden_dropout): Dropout(p=0.1, inplace=False)
    (final_layer_norm): BMERMSNorm()
  )
  (classifier): Linear(in_features=512, out_features=32, bias=True)
)
2024-05-23 13:58:04,847 - __main__ - INFO - Total Parameters: 12856355
2024-05-23 14:00:02,129 - __main__ - INFO - Epoch [1/1], Step [3/30], lr: 0.00002000, Loss: 3.982111612955729
2024-05-23 14:01:57,182 - __main__ - INFO - Epoch [1/1], Step [6/30], lr: 0.00002000, Loss: 3.2179272174835205
2024-05-23 14:03:52,762 - __main__ - INFO - Epoch [1/1], Step [9/30], lr: 0.00002000, Loss: 2.2345762252807617
…
2024-05-23 14:46:18,158 - __main__ - INFO - Epoch [1/1], Step [21/30], lr: 0.00002000, Loss: 0.11696525911490123
2024-05-23 14:48:13,707 - __main__ - INFO - Epoch [1/1], Step [24/30], lr: 0.00002000, Loss: 2.5391103141009808
2024-05-23 14:50:07,679 - __main__ - INFO - Epoch [1/1], Step [27/30], lr: 0.00002000, Loss: 1.9370320563515027
2024-05-23 14:52:00,845 - __main__ - INFO - Epoch [1/1], Step [30/30], lr: 0.00002000, Loss: 0.4583683755869667
2024-06-06 13:14:27,675 - __main__ - INFO - Namespace(epochs=1, lr=2e-05)
2024-06-06 13:14:33,128 - __main__ - INFO - BMEModelForSequenceClassification(
  (bme): BMEModel(
    (embeddings): Embedding(
      (eeg_embedding): Embedding(4098, 512, padding_idx=0)
      (ecg_embedding): Embedding(4098, 512, padding_idx=0)
    )
    (pre_mixer_layernorm): BMERMSNorm()
    (multi_modal_mixer): Multimodal_MambaMixer(
      (eeg_mamba): MambaMixer(
        (conv1d): LognConv1d(1024, 1024, kernel_size=(4,), stride=(1,), padding=(3,), groups=1024)
        (act): SiLU()
        (in_up_proj): Linear(in_features=512, out_features=8192, bias=False)
        (in_down_proj): Linear(in_features=8192, out_features=2048, bias=False)
        (x_proj): Linear(in_features=1024, out_features=64, bias=False)
        (dt_proj): Linear(in_features=32, out_features=1024, bias=True)
        (out_up_proj): Linear(in_features=1024, out_features=4096, bias=False)
        (out_down_proj): Linear(in_features=4096, out_features=512, bias=False)
      )
      (ecg_mamba): MambaMixer(
        (conv1d): LognConv1d(1024, 1024, kernel_size=(4,), stride=(1,), padding=(3,), groups=1024)
        (act): SiLU()
        (in_up_proj): Linear(in_features=512, out_features=8192, bias=False)
        (in_down_proj): Linear(in_features=8192, out_features=2048, bias=False)
        (x_proj): Linear(in_features=1024, out_features=64, bias=False)
        (dt_proj): Linear(in_features=32, out_features=1024, bias=True)
        (out_up_proj): Linear(in_features=1024, out_features=4096, bias=False)
        (out_down_proj): Linear(in_features=4096, out_features=512, bias=False)
      )
    )
    (pre_attention_layernorm): BMERMSNorm()
    (attention): MultiModalMultiHeadAggregatedAttention(
      (eeg_Q): Linear(in_features=512, out_features=512, bias=True)
      (eeg_K): Linear(in_features=512, out_features=512, bias=True)
      (eeg_V): Linear(in_features=512, out_features=512, bias=True)
      (ecg_Q): Linear(in_features=512, out_features=512, bias=True)
      (ecg_K): Linear(in_features=512, out_features=512, bias=True)
      (ecg_V): Linear(in_features=512, out_features=512, bias=True)
      (W_out): Linear(in_features=1024, out_features=512, bias=True)
    )
    (pre_mlp_layernorm): BMERMSNorm()
    (mlp): MLP(
      (gate_linear): Linear(in_features=512, out_features=2048, bias=True)
      (gate_act): Sigmoid()
      (up_linear): Linear(in_features=512, out_features=2048, bias=True)
      (up_act): SiLU()
      (down_linear): Linear(in_features=2048, out_features=512, bias=True)
    )
    (hidden_dropout): Dropout(p=0.1, inplace=False)
    (final_layer_norm): BMERMSNorm()
  )
  (classifier): Linear(in_features=512, out_features=32, bias=True)
)
2024-06-06 13:14:33,132 - __main__ - INFO - Total Parameters: 64237602
2024-06-06 13:15:06,532 - __main__ - INFO - Namespace(epochs=1, lr=2e-05)
2024-06-06 13:15:09,613 - __main__ - INFO - BMEModelForSequenceClassification(
  (bme): BMEModel(
    (embeddings): Embedding(
      (eeg_embedding): Embedding(4098, 512, padding_idx=0)
      (ecg_embedding): Embedding(4098, 512, padding_idx=0)
    )
    (pre_mixer_layernorm): BMERMSNorm()
    (multi_modal_mixer): Multimodal_MambaMixer(
      (eeg_mamba): MambaMixer(
        (conv1d): LognConv1d(1024, 1024, kernel_size=(4,), stride=(1,), padding=(3,), groups=1024)
        (act): SiLU()
        (in_up_proj): Linear(in_features=512, out_features=8192, bias=False)
        (in_down_proj): Linear(in_features=8192, out_features=2048, bias=False)
        (x_proj): Linear(in_features=1024, out_features=64, bias=False)
        (dt_proj): Linear(in_features=32, out_features=1024, bias=True)
        (out_up_proj): Linear(in_features=1024, out_features=4096, bias=False)
        (out_down_proj): Linear(in_features=4096, out_features=512, bias=False)
      )
      (ecg_mamba): MambaMixer(
        (conv1d): LognConv1d(1024, 1024, kernel_size=(4,), stride=(1,), padding=(3,), groups=1024)
        (act): SiLU()
        (in_up_proj): Linear(in_features=512, out_features=8192, bias=False)
        (in_down_proj): Linear(in_features=8192, out_features=2048, bias=False)
        (x_proj): Linear(in_features=1024, out_features=64, bias=False)
        (dt_proj): Linear(in_features=32, out_features=1024, bias=True)
        (out_up_proj): Linear(in_features=1024, out_features=4096, bias=False)
        (out_down_proj): Linear(in_features=4096, out_features=512, bias=False)
      )
    )
    (pre_attention_layernorm): BMERMSNorm()
    (attention): MultiModalMultiHeadAggregatedAttention(
      (eeg_Q): Linear(in_features=512, out_features=512, bias=True)
      (eeg_K): Linear(in_features=512, out_features=512, bias=True)
      (eeg_V): Linear(in_features=512, out_features=512, bias=True)
      (ecg_Q): Linear(in_features=512, out_features=512, bias=True)
      (ecg_K): Linear(in_features=512, out_features=512, bias=True)
      (ecg_V): Linear(in_features=512, out_features=512, bias=True)
      (W_out): Linear(in_features=1024, out_features=512, bias=True)
    )
    (pre_mlp_layernorm): BMERMSNorm()
    (mlp): MLP(
      (gate_linear): Linear(in_features=512, out_features=2048, bias=True)
      (gate_act): Sigmoid()
      (up_linear): Linear(in_features=512, out_features=2048, bias=True)
      (up_act): SiLU()
      (down_linear): Linear(in_features=2048, out_features=512, bias=True)
    )
    (hidden_dropout): Dropout(p=0.1, inplace=False)
    (final_layer_norm): BMERMSNorm()
  )
  (classifier): Linear(in_features=512, out_features=32, bias=True)
)
2024-06-06 13:15:09,617 - __main__ - INFO - Total Parameters: 64237602
2024-06-06 13:15:30,530 - __main__ - INFO - Namespace(epochs=1, lr=2e-05)
2024-06-06 13:15:33,672 - __main__ - INFO - BMEModelForSequenceClassification(
  (bme): BMEModel(
    (embeddings): Embedding(
      (eeg_embedding): Embedding(4098, 512, padding_idx=0)
      (ecg_embedding): Embedding(4098, 512, padding_idx=0)
    )
    (pre_mixer_layernorm): BMERMSNorm()
    (multi_modal_mixer): Multimodal_MambaMixer(
      (eeg_mamba): MambaMixer(
        (conv1d): LognConv1d(1024, 1024, kernel_size=(4,), stride=(1,), padding=(3,), groups=1024)
        (act): SiLU()
        (in_up_proj): Linear(in_features=512, out_features=8192, bias=False)
        (in_down_proj): Linear(in_features=8192, out_features=2048, bias=False)
        (x_proj): Linear(in_features=1024, out_features=64, bias=False)
        (dt_proj): Linear(in_features=32, out_features=1024, bias=True)
        (out_up_proj): Linear(in_features=1024, out_features=4096, bias=False)
        (out_down_proj): Linear(in_features=4096, out_features=512, bias=False)
      )
      (ecg_mamba): MambaMixer(
        (conv1d): LognConv1d(1024, 1024, kernel_size=(4,), stride=(1,), padding=(3,), groups=1024)
        (act): SiLU()
        (in_up_proj): Linear(in_features=512, out_features=8192, bias=False)
        (in_down_proj): Linear(in_features=8192, out_features=2048, bias=False)
        (x_proj): Linear(in_features=1024, out_features=64, bias=False)
        (dt_proj): Linear(in_features=32, out_features=1024, bias=True)
        (out_up_proj): Linear(in_features=1024, out_features=4096, bias=False)
        (out_down_proj): Linear(in_features=4096, out_features=512, bias=False)
      )
    )
    (pre_attention_layernorm): BMERMSNorm()
    (attention): MultiModalMultiHeadAggregatedAttention(
      (eeg_Q): Linear(in_features=512, out_features=512, bias=True)
      (eeg_K): Linear(in_features=512, out_features=512, bias=True)
      (eeg_V): Linear(in_features=512, out_features=512, bias=True)
      (ecg_Q): Linear(in_features=512, out_features=512, bias=True)
      (ecg_K): Linear(in_features=512, out_features=512, bias=True)
      (ecg_V): Linear(in_features=512, out_features=512, bias=True)
      (W_out): Linear(in_features=1024, out_features=512, bias=True)
    )
    (pre_mlp_layernorm): BMERMSNorm()
    (mlp): MLP(
      (gate_linear): Linear(in_features=512, out_features=2048, bias=True)
      (gate_act): Sigmoid()
      (up_linear): Linear(in_features=512, out_features=2048, bias=True)
      (up_act): SiLU()
      (down_linear): Linear(in_features=2048, out_features=512, bias=True)
    )
    (hidden_dropout): Dropout(p=0.1, inplace=False)
    (final_layer_norm): BMERMSNorm()
  )
  (classifier): Linear(in_features=512, out_features=32, bias=True)
)
2024-06-06 13:15:33,675 - __main__ - INFO - Total Parameters: 64237602
2024-06-06 13:17:33,915 - __main__ - INFO - Epoch [1/1], Step [3/30], lr: 0.00002000, Loss: nan
2024-06-06 13:18:20,813 - __main__ - INFO - Namespace(epochs=1, lr=2e-05)
2024-06-06 13:18:23,940 - __main__ - INFO - BMEModelForSequenceClassification(
  (bme): BMEModel(
    (embeddings): Embedding(
      (eeg_embedding): Embedding(4098, 512, padding_idx=0)
      (ecg_embedding): Embedding(4098, 512, padding_idx=0)
    )
    (pre_mixer_layernorm): BMERMSNorm()
    (multi_modal_mixer): Multimodal_MambaMixer(
      (eeg_mamba): MambaMixer(
        (conv1d): LognConv1d(1024, 1024, kernel_size=(4,), stride=(1,), padding=(3,), groups=1024)
        (act): SiLU()
        (in_up_proj): Linear(in_features=512, out_features=8192, bias=False)
        (in_down_proj): Linear(in_features=8192, out_features=2048, bias=False)
        (x_proj): Linear(in_features=1024, out_features=64, bias=False)
        (dt_proj): Linear(in_features=32, out_features=1024, bias=True)
        (out_up_proj): Linear(in_features=1024, out_features=4096, bias=False)
        (out_down_proj): Linear(in_features=4096, out_features=512, bias=False)
      )
      (ecg_mamba): MambaMixer(
        (conv1d): LognConv1d(1024, 1024, kernel_size=(4,), stride=(1,), padding=(3,), groups=1024)
        (act): SiLU()
        (in_up_proj): Linear(in_features=512, out_features=8192, bias=False)
        (in_down_proj): Linear(in_features=8192, out_features=2048, bias=False)
        (x_proj): Linear(in_features=1024, out_features=64, bias=False)
        (dt_proj): Linear(in_features=32, out_features=1024, bias=True)
        (out_up_proj): Linear(in_features=1024, out_features=4096, bias=False)
        (out_down_proj): Linear(in_features=4096, out_features=512, bias=False)
      )
    )
    (pre_attention_layernorm): BMERMSNorm()
    (attention): MultiModalMultiHeadAggregatedAttention(
      (eeg_Q): Linear(in_features=512, out_features=512, bias=True)
      (eeg_K): Linear(in_features=512, out_features=512, bias=True)
      (eeg_V): Linear(in_features=512, out_features=512, bias=True)
      (ecg_Q): Linear(in_features=512, out_features=512, bias=True)
      (ecg_K): Linear(in_features=512, out_features=512, bias=True)
      (ecg_V): Linear(in_features=512, out_features=512, bias=True)
      (W_out): Linear(in_features=1024, out_features=512, bias=True)
    )
    (pre_mlp_layernorm): BMERMSNorm()
    (mlp): MLP(
      (gate_linear): Linear(in_features=512, out_features=2048, bias=True)
      (gate_act): Sigmoid()
      (up_linear): Linear(in_features=512, out_features=2048, bias=True)
      (up_act): SiLU()
      (down_linear): Linear(in_features=2048, out_features=512, bias=True)
    )
    (hidden_dropout): Dropout(p=0.1, inplace=False)
    (final_layer_norm): BMERMSNorm()
  )
  (classifier): Linear(in_features=512, out_features=32, bias=True)
)
2024-06-06 13:18:23,944 - __main__ - INFO - Total Parameters: 64237602
2024-06-06 13:18:55,927 - __main__ - INFO - Epoch [1/1], Step [3/30], lr: 0.00002000, Loss: nan
2024-06-06 13:19:26,395 - __main__ - INFO - Epoch [1/1], Step [6/30], lr: 0.00002000, Loss: nan
2024-06-06 13:20:03,208 - __main__ - INFO - Namespace(epochs=1, lr=2e-05)
2024-06-06 13:20:06,345 - __main__ - INFO - BMEModelForSequenceClassification(
  (bme): BMEModel(
    (embeddings): Embedding(
      (eeg_embedding): Embedding(4098, 512, padding_idx=0)
      (ecg_embedding): Embedding(4098, 512, padding_idx=0)
    )
    (pre_mixer_layernorm): BMERMSNorm()
    (multi_modal_mixer): Multimodal_MambaMixer(
      (eeg_mamba): MambaMixer(
        (conv1d): LognConv1d(1024, 1024, kernel_size=(4,), stride=(1,), padding=(3,), groups=1024)
        (act): SiLU()
        (in_up_proj): Linear(in_features=512, out_features=8192, bias=False)
        (in_down_proj): Linear(in_features=8192, out_features=2048, bias=False)
        (x_proj): Linear(in_features=1024, out_features=64, bias=False)
        (dt_proj): Linear(in_features=32, out_features=1024, bias=True)
        (out_up_proj): Linear(in_features=1024, out_features=4096, bias=False)
        (out_down_proj): Linear(in_features=4096, out_features=512, bias=False)
      )
      (ecg_mamba): MambaMixer(
        (conv1d): LognConv1d(1024, 1024, kernel_size=(4,), stride=(1,), padding=(3,), groups=1024)
        (act): SiLU()
        (in_up_proj): Linear(in_features=512, out_features=8192, bias=False)
        (in_down_proj): Linear(in_features=8192, out_features=2048, bias=False)
        (x_proj): Linear(in_features=1024, out_features=64, bias=False)
        (dt_proj): Linear(in_features=32, out_features=1024, bias=True)
        (out_up_proj): Linear(in_features=1024, out_features=4096, bias=False)
        (out_down_proj): Linear(in_features=4096, out_features=512, bias=False)
      )
    )
    (pre_attention_layernorm): BMERMSNorm()
    (attention): MultiModalMultiHeadAggregatedAttention(
      (eeg_Q): Linear(in_features=512, out_features=512, bias=True)
      (eeg_K): Linear(in_features=512, out_features=512, bias=True)
      (eeg_V): Linear(in_features=512, out_features=512, bias=True)
      (ecg_Q): Linear(in_features=512, out_features=512, bias=True)
      (ecg_K): Linear(in_features=512, out_features=512, bias=True)
      (ecg_V): Linear(in_features=512, out_features=512, bias=True)
      (W_out): Linear(in_features=1024, out_features=512, bias=True)
    )
    (pre_mlp_layernorm): BMERMSNorm()
    (mlp): MLP(
      (gate_linear): Linear(in_features=512, out_features=2048, bias=True)
      (gate_act): Sigmoid()
      (up_linear): Linear(in_features=512, out_features=2048, bias=True)
      (up_act): SiLU()
      (down_linear): Linear(in_features=2048, out_features=512, bias=True)
    )
    (hidden_dropout): Dropout(p=0.1, inplace=False)
    (final_layer_norm): BMERMSNorm()
  )
  (classifier): Linear(in_features=512, out_features=32, bias=True)
)
2024-06-06 13:20:06,348 - __main__ - INFO - Total Parameters: 64236578
2024-06-06 13:20:37,913 - __main__ - INFO - Epoch [1/1], Step [3/30], lr: 0.00002000, Loss: 4.1688493092854815
2024-06-06 13:21:08,035 - __main__ - INFO - Epoch [1/1], Step [6/30], lr: 0.00002000, Loss: 2.7294551531473794
2024-06-06 13:21:38,114 - __main__ - INFO - Epoch [1/1], Step [9/30], lr: 0.00002000, Loss: 1.7407612403233845
…
